course/week3/conflearn_project/log/epoch=9-step=16000.ckpt (torch, 598398 bytes, 9 tensors)

model.0.weight f4 [64, 768]
-0.021816943 0.002416449 0.017293949 -0.02925117 0.0016494094 -0.025890663 -0.01442 -0.014175741
0.011889157 0.029461436 -0.0154887885 0.005503897 0.0070984093 -0.010040903 -0.023070203 0.027914688
-0.00870413 -0.02783674 -0.0021413872 0.037209366 -0.028567515 -0.038153358 0.020943735 -0.01369815
0.014685904 0.028372169 0.037849784 -0.0327934 -0.03831793 0.01543744 0.0071633914 -0.02986074
0.030156817 -0.031866875 0.032460913 0.0068137962 -0.0148985125 -0.026443442 -0.024547046 0.011911018
-0.01989463 0.0010741219 -0.0038264184 -0.009958381 0.00021468037 0.007549017 0.0075005437 -0.025596637
-0.033092514 -0.007915083 -0.018692974 0.00092505326 -0.009129972 0.013859372 -0.032606956 -0.03304792
-0.027621385 0.027021734 -0.027946206 0.00871216 0.03074561 -0.029989123 0.02553547 0.026013821
0.0019029068 0.0049888953 0.029945904 -0.017751433 0.007956624 -0.01462446 -0.013647801 -0.0019086596
0.009575141 0.0066814767 0.015060619 0.005478974 0.009664729 0.019455919 -0.02553962 0.006851465
0.013243102 0.03197338 -0.03510342 0.021537371 -0.029900927 0.009422983 -0.020934587 0.031541713
-0.0315948 0.0016235607 -0.029780202 0.024864957 0.026022349 0.0063781315 0.011233271 -0.0060162554
0.007336648 0.03595553 0.03037653 0.003998124 0.03017966 -0.032853156 -0.0019614385 0.023924286
0.030632952 -0.031440083 0.0030331574 -0.012608514 0.030565353 -0.031159054 0.023877345 -0.015314728
-0.010902615 -0.0267309 0.020053113 -0.014538198 0.025213473 0.035839166 0.0119639225 -0.015666304
-0.020351198 -0.0022481284 0.010610333 -0.0305302 -0.026984638 0.009720118 0.028716866 0.009196474
0.026204707 -0.02310838 -0.0042947163 -0.0069250306 0.011182095 0.018533235 -0.021996962 -0.024263436
0.023539746 0.0044891625 -0.019368915 -0.005124656 -0.027043086 -0.034714397 0.0078022224 -0.029679952
-0.014024829 0.01904342 0.026232565 0.019918503 -0.0052406546 -0.013228177 -0.022158645 0.010445156
-0.03211438 -0.019336358 -0.013839523 -0.00048017805 0.03056949 -0.005487774 -0.010262506 0.013726944
0.018563915 0.028258568 0.023417315 -0.017992325 -0.028465295 -0.012042121 0.027590107 0.026946194
0.021366617 -0.031373136 0.030440291 7.344985e-05 0.0044910708 -0.003797685 0.013874766 -0.019589901
0.021689525 0.01027889 -0.025109109 0.028597191 0.017424598 -0.00010107968 0.005969694 -0.024663681
0.009702376 -0.0050615245 -0.000838216 -0.007624348 -0.015090037 0.031781252 0.010887464 0.026411628
0.03742721 0.031510863 -0.016586952 -0.006281411 0.010614318 -0.02348764 0.0039077257 0.037663527
-0.023833275 0.03405066 -0.0038747902 0.011061991 0.03328099 -0.021563593 0.011111911 -0.01690469
-0.011554493 0.0029897236 0.014048828 0.0384324 0.020273572 -0.02982806 -0.029706482 -0.0020649552
0.010370535 0.011337298 -0.0072868178 -0.032018792 0.018601714 0.026379045 0.032218862 0.01645858
-0.018530121 0.012605658 -0.028986061 -0.01507135 -0.0152768195 0.012858659 0.021424014 0.021940038
0.028111417 0.024666218 -0.019053008 0.00022944386 0.011620512 -0.030272432 0.03016776 0.019127846
0.031654663 0.0043954146 0.010269555 -0.011955716 -0.007528349 0.013483655 0.032437474 0.005383164
-0.00050151086 0.027200958 0.021095036 -0.0066451044 0.005269797 0.020275783 0.013099754 -0.034199525
00000000: 72b9 b2bc 495d 1e3b 0aac 8d3c 26a0 efbc
00000010: ff30 d83a a818 d4bc dd41 6cbc 5e41 68bc
00000020: bdca 423c 1c59 f13c b0c4 7dbc 095a b43b
00000030: c699 e83b 9a82 24bc b9fd bcbc 58ad e43c
00000040: c49b 0ebc e009 e4bc 8456 0cbb d968 183d
00000050: 6c06 eabc b246 1cbd 3292 ab3c 356e 60bc
00000060: 259d 703c c06c e83c 6008 1b3d 5f52 06bd
00000070: 43f3 1cbd 51ed 7c3c e2ba ea3b 839e f4bc
00000080: 6e0b f73c d786 02bd bcf5 043d 4446 df3b
00000090: e418 74bc eb9f d8bc e316 c9bc 6e26 433c
000000a0: 10fa a2bc 8dc9 8c3a a6c4 7abb 7a28 23bc
000000b0: d31b 6139 bf5d f73b 1fc7 f53b 0ab0 d1bc
000000c0: 048c 07bd 44ae 01bc 0222 99bc 467f 723a
000000d0: e195 15bc 6b12 633c df8e 05bd 415d 07bd
000000e0: 3e46 e2bc af5c dd3c 71ef e4bc 73bd 0e3c
000000f0: 38de fb3c c0ab f5bc c32f d13c f01a d53c
00000100: f56a f93a e379 a33b 1d51 f53c 746b 91bc
00000110: 805c 023c 6e9b 6fbc 079b 5fbc fd2b faba
00000120: 0de1 1c3c 4af0 da3b d1c0 763c f788 b33b
00000130: d058 1e3c 0562 9f3c 7738 d1bc 4182 e03b
00000140: 98f9 583c 85f6 023d 9bc8 0fbd 246f b03c
00000150: caf2 f4bc db62 1a3c 037f abbc e231 013d
00000160: 8d69 01bd a8cd d43a 9cf5 f3bc 98b1 cb3c
00000170: d22c d53c a5ff d03b c10b 383c 0224 c5bb
00000180: 4468 f03b 1b46 133d 33d8 f83c b202 833b
00000190: 563b f73c 0891 06bd 7a8b 00bb ddfc c33c
000001a0: f5f1 fa3c 51c7 00bd f0c7 463b f193 4ebc
000001b0: 3164 fa3c 4641 ffbc 6c9a c33c a0ea 7abc
000001c0: e2a0 32bc c3fa dabc 6d46 a43c 9f31 6ebc
000001d0: 7c8c ce3c 17cc 123d 5404 443c 9f56 80bc
000001e0: 8eb7 a6bc 5655 13bb f6d6 2d3c 781a fabc
000001f0: e30e ddbc 2141 1f3c a23f eb3c cfac 163c
00000200: 41ab d63c c94d bdbc b1ba 8cbb 5eeb e2bb
00000210: 1b35 373c 03d3 973c f932 b4bc 1dc4 c6bc
00000220: 6dd6 c03c d319 933b 8fab 9ebc bbec a7bb
00000230: 7689 ddbc af30 0ebd c9a9 ff3b 5f23 f3bc
00000240: 65c8 65bc f200 9c3c ade5 d63c 212c a33c
00000250: ccb9 abbb ffba 58bc 0c86 b5bc 2922 2b3c
00000260: 5e8a 03bd 4867 9ebc 2bbf 62bc 68c0 fbb9
00000270: de6c fa3c c9d2 b3bb 1224 28bc fae6 603c
00000280: 5a13 983c 837e e73c abd5 bf3c a464 93bc
00000290: 0d30 e9bc 514c 45bc a604 e23c 44be dc3c
000002a0: 0b09 af3c 1e81 00bd eb5d f93c 1709 9a38
000002b0: d529 933b 95e2 78bb fd52 633c 007b a0bc
000002c0: 3bae b13c ca68 283c 9eb1 cdbc a844 ea3c
000002d0: 08be 8e3c bdfa d3b8 6c9d c33b 7d0b cabc
000002e0: b7f6 1e3c 25db a5bb b9bb 5bba abd5 f9bb
000002f0: 343c 77bc 0f2d 023d 5561 323c 335d d83c
00000300: 464d 193d 8911 013d 5ce1 87bc 4bd4 cdbb
00000310: ade7 2d3c 2769 c0bc 610c 803b 1245 1a3d
00000320: 003e c3bc b478 0b3d 31f0 7dbb 5a3d 353c
00000330: a651 083d 22a6 b0bc bc0e 363c b47b 8abc
00000340: 0e4f 3dbc 3def 433b 0e2d 663c 4b6b 1d3d
00000350: c314 a63c fa59 f4bc 025b f3bc 3354 07bb
00000360: 2de9 293c 13c0 393c 42c6 eebb 2326 03bd
00000370: 9f62 983c de18 d83c edf7 033d 25d4 863c
00000380: 7bcc 97bc f687 4e3c 2d74 edbc d3ed 76bc
00000390: a04b 7abc 20ad 523c 6a81 af3c 98bb b33c
000003a0: ea49 e63c cf10 ca3c 0e15 9cbc de96 7039
000003b0: f663 3e3c e4fd f7bc 6122 f73c 00b2 9c3c
000003c0: 52a8 013d 6907 903b a341 283c e8e1 43bc
000003d0: 5eb0 f6bb 8cea 5c3c 28dd 043d 4165 b03b
000003e0: d377 03ba 8bd4 de3c 7fcf ac3c 2dbf d9bb
000003f0: 43ae ac3b 6619 a63c 5aa0 563c cd14 0cbd

model.0.bias f4 [64]
-0.02337407 0.014750835 -0.03226652 -0.017303465 0.0011265704 0.006599588 0.029771818 0.013490043
0.0074047744 0.01763659 -0.036891982 -0.018593207 0.03284007 -0.011067926 -0.024374194 0.015955778
-0.0047409683 -0.018164119 0.022407582 0.0041215206 -0.012788071 0.017778447 -0.018737892 -0.033107262
-0.01841934 -0.022706334 0.008465652 -0.027227929 -0.026857732 0.012646263 0.00086712 0.012656388
0.013649145 0.013056475 0.02573079 -0.019078283 0.035005156 0.02711429 0.029191032 -0.028457446
-0.036411613 0.03794392 0.02226785 -0.01975433 -0.017231807 -0.0040603955 0.0066180774 -0.015579522
-0.026074292 0.0017137037 -0.03354343 -0.035568062 -0.009925876 0.035052363 0.0045433054 0.04752963
0.02811491 0.01702785 -0.018505601 -0.03217465 -0.0046502533 0.027231125 0.03445991 -0.008439791
00000000: fa7a bfbc 7cad 713c e629 04bd ffbf 8dbc
00000010: 6ea9 933a 5b41 d83b 07e4 f33c 5705 5d3c
00000020: c0a3 f23b 9c7a 903c 0c1c 17bd c850 98bc
00000030: 4f83 063d 3f56 35bc 64ac c7bc b1b5 823c
00000040: 205a 9bbb ebcc 94bc 1b90 b73c d20d 873b
00000050: 0f85 51bc 1ba4 913c 3580 99bc 7b9b 07bd
00000060: 28e4 96bc a202 babc 85b3 0a3c 1b0d dfbc
00000070: bf04 dcbc 4632 4f3c 704f 633a bd5c 4f3c
00000080: aaa0 5f3c d3ea 553c 61c9 d23c 0f4a 9cbc
00000090: 9161 0f3d ca1e de3c 0822 ef3c 971f e9bc
000000a0: 5824 15bd 156b 1b3d 116b b63c d5d3 a1bc
000000b0: b829 8dbc 110d 85bb 75dc d83b 4041 7fbc
000000c0: c199 d5bc 5b9e e03a d664 09bd d1af 11bd
000000d0: 24a0 22bc 1193 0f3d 02e0 943b 6eae 423d
000000e0: 3d51 e63c fd7d 8b3c 0f99 97bc 91c9 03bd
000000f0: 2761 98bb cf13 df3c d625 0d3d 0d47 0abc

model.2.weight f4 [1, 64]
-0.096806295 0.09464806 0.10020627 0.0066102394 -0.08845047 0.026411219 0.053661883 0.05507775
0.076810315 -0.0030563623 -0.08895492 0.107646994 -0.061767194 0.016647652 0.026371062 -0.086945
-0.0465516 0.03492093 -0.094611794 0.059255324 0.049629502 0.029833555 -0.007455051 -0.07428272
-0.02742017 0.0071720127 -2.5323305 0.07982725 0.048636075 -2.4225676 0.1098988 0.038909897
-0.10289931 -2.5433595 -0.047422428 0.06936734 -0.019693837 0.10480244 0.105332 0.06812014
-0.07537386 -2.5512023 -0.11213793 0.06784433 -0.0647681 -0.053453043 0.039885543 0.06773166
0.10937417 0.029310673 0.08379871 -0.014687866 -0.048770647 -0.11017063 -0.120502695 -2.395598
0.05675758 0.05245013 0.037263744 -0.0028773695 -0.07814081 0.07397474 -0.07198945 -0.0073284814
00000000: 6142 c6bd d8d6 c13d f238 cd3d b59a d83b
00000010: 8525 b5bd 575c d83c 90cc 5b3d 3599 613d
00000020: ba4e 9d3d 404d 48bb ff2d b6bd 0776 dc3d
00000030: 99ff 7cbd a860 883c 2008 d83c 3810 b2bd
00000040: e4ac 3ebd 4009 0f3d d4c3 c1bd b6b5 723d
00000050: 4e48 4b3d 8065 f43c 8049 f4bb 8a21 98bd
00000060: 44a0 e0bc 3403 eb3b b411 22c0 787c a33d
00000070: 9f36 473d 590b 1bc0 9f12 e13d fc5f 1f3d
00000080: e0bc d2bd 67c6 22c0 053e 42bd 7710 8e3d
00000090: f854 a1bc a9a2 d63d 4eb8 d73d 9282 8b3d
000000a0: 9c5d 9abd e646 23c0 92a8 e5bd f8f1 8a3d
000000b0: 23a5 84bd 94f1 5abd 065f 233d e6b6 8a3d
000000c0: 91ff df3d f01c f03c a89e ab3d 60a5 70bc
000000d0: bbc3 47bd 24a1 e1bd 1eca f6bd 7a51 19c0
000000e0: a37a 683d f3d5 563d dea1 183d 4092 3cbb
000000f0: 4a08 a0bd 1280 973d 346f 93bd c223 f0bb

exp_avg f4 [64, 768]
-6e-45 -6e-45 -6e-45 -6e-45 6e-45 6e-45 6e-45 -6e-45
-6e-45 -6e-45 6e-45 6e-45 -6e-45 6e-45 -6e-45 6e-45
6e-45 -6e-45 6e-45 -6e-45 -6e-45 6e-45 6e-45 6e-45
6e-45 6e-45 -6e-45 -6e-45 6e-45 6e-45 6e-45 6e-45
6e-45 6e-45 -6e-45 6e-45 -6e-45 6e-45 6e-45 -6e-45
-6e-45 6e-45 6e-45 -6e-45 -6e-45 6e-45 6e-45 6e-45
-6e-45 -6e-45 -6e-45 6e-45 6e-45 6e-45 -6e-45 6e-45
-6e-45 6e-45 -6e-45 -6e-45 -6e-45 -6e-45 -6e-45 -6e-45
6e-45 -6e-45 6e-45 -6e-45 -6e-45 6e-45 -6e-45 6e-45
6e-45 -6e-45 -6e-45 6e-45 -6e-45 -6e-45 6e-45 6e-45
-6e-45 6e-45 6e-45 6e-45 -6e-45 -6e-45 -6e-45 -6e-45
6e-45 6e-45 -6e-45 -6e-45 6e-45 6e-45 -6e-45 6e-45
-6e-45 -6e-45 -6e-45 -6e-45 6e-45 -6e-45 -6e-45 6e-45
-6e-45 -6e-45 -6e-45 6e-45 6e-45 -6e-45 -6e-45 6e-45
6e-45 -6e-45 6e-45 6e-45 6e-45 -6e-45 6e-45 -6e-45
-6e-45 -6e-45 6e-45 6e-45 -6e-45 6e-45 6e-45 6e-45
6e-45 6e-45 -6e-45 6e-45 -6e-45 6e-45 6e-45 6e-45
6e-45 -6e-45 -6e-45 6e-45 6e-45 6e-45 -6e-45 6e-45
6e-45 6e-45 6e-45 -6e-45 6e-45 6e-45 6e-45 6e-45
-6e-45 -6e-45 -6e-45 -6e-45 6e-45 -6e-45 -6e-45 6e-45
6e-45 -6e-45 -6e-45 -6e-45 -6e-45 -6e-45 6e-45 6e-45
-6e-45 -6e-45 -6e-45 -6e-45 -6e-45 6e-45 -6e-45 6e-45
-6e-45 6e-45 6e-45 6e-45 6e-45 -6e-45 -6e-45 6e-45
6e-45 6e-45 -6e-45 6e-45 6e-45 6e-45 6e-45 -6e-45
-6e-45 6e-45 -6e-45 6e-45 -6e-45 6e-45 -6e-45 -6e-45
6e-45 -6e-45 -6e-45 6e-45 6e-45 6e-45 -6e-45 -6e-45
6e-45 6e-45 6e-45 -6e-45 6e-45 -6e-45 -6e-45 -6e-45
6e-45 6e-45 6e-45 -6e-45 -6e-45 6e-45 6e-45 -6e-45
6e-45 -6e-45 -6e-45 -6e-45 6e-45 6e-45 6e-45 -6e-45
6e-45 -6e-45 -6e-45 -6e-45 -6e-45 6e-45 6e-45 6e-45
6e-45 6e-45 6e-45 6e-45 6e-45 -6e-45 6e-45 -6e-45
-6e-45 -6e-45 -6e-45 -6e-45 6e-45 -6e-45 6e-45 6e-45
00000000: 0400 0080 0400 0080 0400 0080 0400 0080
00000010: 0400 0000 0400 0000 0400 0000 0400 0080
00000020: 0400 0080 0400 0080 0400 0000 0400 0000
00000030: 0400 0080 0400 0000 0400 0080 0400 0000
00000040: 0400 0000 0400 0080 0400 0000 0400 0080
00000050: 0400 0080 0400 0000 0400 0000 0400 0000
00000060: 0400 0000 0400 0000 0400 0080 0400 0080
00000070: 0400 0000 0400 0000 0400 0000 0400 0000
00000080: 0400 0000 0400 0000 0400 0080 0400 0000
00000090: 0400 0080 0400 0000 0400 0000 0400 0080
000000a0: 0400 0080 0400 0000 0400 0000 0400 0080
000000b0: 0400 0080 0400 0000 0400 0000 0400 0000
000000c0: 0400 0080 0400 0080 0400 0080 0400 0000
000000d0: 0400 0000 0400 0000 0400 0080 0400 0000
000000e0: 0400 0080 0400 0000 0400 0080 0400 0080
000000f0: 0400 0080 0400 0080 0400 0080 0400 0080
00000100: 0400 0000 0400 0080 0400 0000 0400 0080
00000110: 0400 0080 0400 0000 0400 0080 0400 0000
00000120: 0400 0000 0400 0080 0400 0080 0400 0000
00000130: 0400 0080 0400 0080 0400 0000 0400 0000
00000140: 0400 0080 0400 0000 0400 0000 0400 0000
00000150: 0400 0080 0400 0080 0400 0080 0400 0080
00000160: 0400 0000 0400 0000 0400 0080 0400 0080
00000170: 0400 0000 0400 0000 0400 0080 0400 0000
00000180: 0400 0080 0400 0080 0400 0080 0400 0080
00000190: 0400 0000 0400 0080 0400 0080 0400 0000
000001a0: 0400 0080 0400 0080 0400 0080 0400 0000
000001b0: 0400 0000 0400 0080 0400 0080 0400 0000
000001c0: 0400 0000 0400 0080 0400 0000 0400 0000
000001d0: 0400 0000 0400 0080 0400 0000 0400 0080
000001e0: 0400 0080 0400 0080 0400 0000 0400 0000
000001f0: 0400 0080 0400 0000 0400 0000 0400 0000
00000200: 0400 0000 0400 0000 0400 0080 0400 0000
00000210: 0400 0080 0400 0000 0400 0000 0400 0000
00000220: 0400 0000 0400 0080 0400 0080 0400 0000
00000230: 0400 0000 0400 0000 0400 0080 0400 0000
00000240: 0400 0000 0400 0000 0400 0000 0400 0080
00000250: 0400 0000 0400 0000 0400 0000 0400 0000
00000260: 0400 0080 0400 0080 0400 0080 0400 0080
00000270: 0400 0000 0400 0080 0400 0080 0400 0000
00000280: 0400 0000 0400 0080 0400 0080 0400 0080
00000290: 0400 0080 0400 0080 0400 0000 0400 0000
000002a0: 0400 0080 0400 0080 0400 0080 0400 0080
000002b0: 0400 0080 0400 0000 0400 0080 0400 0000
000002c0: 0400 0080 0400 0000 0400 0000 0400 0000
000002d0: 0400 0000 0400 0080 0400 0080 0400 0000
000002e0: 0400 0000 0400 0000 0400 0080 0400 0000
000002f0: 0400 0000 0400 0000 0400 0000 0400 0080
00000300: 0400 0080 0400 0000 0400 0080 0400 0000
00000310: 0400 0080 0400 0000 0400 0080 0400 0080
00000320: 0400 0000 0400 0080 0400 0080 0400 0000
00000330: 0400 0000 0400 0000 0400 0080 0400 0080
00000340: 0400 0000 0400 0000 0400 0000 0400 0080
00000350: 0400 0000 0400 0080 0400 0080 0400 0080
00000360: 0400 0000 0400 0000 0400 0000 0400 0080
00000370: 0400 0080 0400 0000 0400 0000 0400 0080
00000380: 0400 0000 0400 0080 0400 0080 0400 0080
00000390: 0400 0000 0400 0000 0400 0000 0400 0080
000003a0: 0400 0000 0400 0080 0400 0080 0400 0080
000003b0: 0400 0080 0400 0000 0400 0000 0400 0000
000003c0: 0400 0000 0400 0000 0400 0000 0400 0000
000003d0: 0400 0000 0400 0080 0400 0000 0400 0080
000003e0: 0400 0080 0400 0080 0400 0080 0400 0080
000003f0: 0400 0000 0400 0080 0400 0000 0400 0000

exp_avg_sq f4 [64, 768]
2.2776385e-18 1.810716e-15 1.920608e-15 2.4039234e-16 8.381687e-16 1.6452066e-15 2.663833e-15 1.4616516e-16
3.1553131e-16 1.0781235e-15 3.097415e-15 1.5329341e-18 4.2790016e-16 5.783101e-16 1.0114212e-15 9.3206565e-15
1.9626317e-15 9.161155e-15 1.4219944e-16 1.9209332e-17 2.6359756e-15 1.2919876e-16 8.895834e-15 4.420177e-15
6.4013557e-16 1.3740997e-16 1.1386341e-15 1.6728931e-18 9.94578e-16 2.4574094e-15 3.8070192e-15 6.0497396e-17
4.2651113e-16 2.5904622e-15 2.4230002e-15 2.4044176e-16 3.9546092e-15 2.4980844e-18 3.157268e-15 1.569729e-15
3.5618903e-16 1.4560491e-15 1.5146698e-15 8.8577385e-16 4.2346743e-16 6.6515185e-15 2.4627294e-15 1.7904235e-17
7.3540226e-16 4.1936215e-16 4.6534533e-15 4.7104887e-15 3.9585636e-15 1.572921e-15 7.624083e-17 9.2032135e-17
5.885186e-16 2.6401096e-15 1.8132944e-16 3.682851e-16 5.669157e-16 1.9236472e-15 2.0041556e-18 6.471936e-17
1.3675047e-17 1.0185686e-15 3.9309007e-16 1.0051283e-15 8.8629266e-16 1.1427934e-16 4.1583306e-16 7.6358316e-16
1.1684574e-15 3.8439545e-15 3.1931679e-15 1.1408067e-16 1.4824642e-14 4.900777e-16 3.979624e-15 7.292122e-15
2.933764e-16 1.9352645e-15 5.1205527e-17 1.9183789e-15 2.2785522e-17 5.0762724e-17 4.9556338e-17 8.305716e-16
1.251128e-15 2.3340268e-15 1.6522225e-15 6.7519677e-15 3.4900942e-16 1.0935564e-17 4.4185603e-16 5.830262e-17
7.574397e-17 2.2400866e-16 1.3275621e-15 1.4243208e-15 2.1786442e-16 2.707112e-15 9.130792e-16 2.8393067e-15
1.7570652e-18 1.514209e-15 2.0777652e-18 3.3917838e-15 2.0295889e-16 4.1390757e-16 1.337966e-15 8.015302e-15
4.5480574e-15 3.9114317e-17 3.850127e-17 1.0098251e-15 7.090063e-16 3.235822e-15 7.909214e-15 4.0015425e-15
1.0268077e-19 4.3814402e-16 7.7534987e-16 1.4256376e-15 2.3462516e-15 3.1187128e-15 7.9119807e-16 3.3873453e-15
1.1321167e-15 5.1228087e-16 4.942903e-17 6.263932e-16 4.7617773e-16 8.151336e-16 2.2499848e-15 4.9387823e-16
1.1193247e-18 4.59998e-15 2.0618654e-15 2.7310623e-15 4.8405316e-15 7.647904e-16 1.4387324e-16 1.5182958e-15
3.8488796e-16 2.0902128e-15 8.144867e-16 6.334621e-15 2.208038e-16 5.174659e-15 4.4237312e-16 8.139997e-16
5.3588434e-16 3.3628908e-15 2.8549254e-15 3.7614984e-16 6.4062485e-17 4.437e-15 4.8862493e-16 5.642006e-15
1.8340906e-16 4.1019394e-17 1.1655835e-15 1.9523032e-15 2.1455439e-17 7.699007e-16 1.5988306e-17 5.49362e-16
1.853397e-16 8.165801e-15 7.344236e-16 1.1843308e-14 5.175458e-16 1.8003253e-15 4.2742744e-15 2.9479294e-15
3.2052682e-15 5.5401296e-16 6.6994385e-15 3.4423118e-17 2.0147665e-19 1.8123574e-15 6.1267783e-18 3.6392524e-16
4.053158e-15 2.9928183e-15 6.7047918e-15 3.491326e-16 7.247225e-16 2.8840718e-15 8.0533897e-16 1.6448299e-16
6.0388494e-16 7.397964e-16 1.7607556e-15 1.2852955e-15 2.0194439e-15 1.208674e-15 2.608258e-15 1.7048544e-15
4.221331e-15 7.184908e-15 6.2720136e-17 2.1090264e-16 2.6454967e-15 1.2288317e-18 1.0858761e-16 3.3292185e-16
7.389496e-16 1.3478052e-15 8.534624e-16 6.6485132e-15 3.654595e-15 1.4457084e-17 8.531251e-17 1.2247984e-16
1.4606833e-15 2.5585691e-15 4.287583e-16 6.023459e-15 8.224957e-16 7.738234e-16 3.5779514e-15 2.4823586e-15
1.2282275e-15 3.7299773e-15 6.901827e-15 5.0400663e-16 1.992747e-15 1.8193008e-15 1.1489177e-15 3.3728928e-15
1.1567466e-15 6.9285977e-16 7.696457e-15 5.3995475e-15 4.961775e-16 3.0115899e-15 1.1942162e-15 9.065394e-16
2.6350208e-15 2.881618e-17 6.813614e-16 1.0990231e-15 9.215779e-16 6.9232545e-16 1.4677471e-15 5.50031e-15
7.005418e-17 3.4400227e-15 1.5861937e-15 2.056209e-15 7.0210726e-15 2.638193e-15 2.4287924e-15 6.1533594e-15
00000000: 600f 2822 d179 0227 f764 0a27 a693 8a25
00000010: ef95 7126 6919 ed26 0cf3 3f27 5784 2825
00000020: 34e4 b525 bd5f 9b26 3931 5f27 9d38 e221
00000030: ebaa f625 c1af 2626 dbc2 9126 f1e7 2728
00000040: 2a6c 0d27 5f08 2528 def1 2325 c12c b123
00000050: 2bf1 3d27 bef4 1425 cb40 2028 f040 9f27
00000060: ab81 3826 446c 1e25 2f18 a426 1de0 f621
00000070: 7455 8f26 3413 3127 8e29 8927 5c7f 8b24
00000080: efdd f525 98a9 3a27 7798 2e27 f19a 8a25
00000090: d57a 8e27 7b53 3822 5181 6327 c738 e226
000000a0: 3954 cd25 bbd6 d126 7449 da26 934e 7f26
000000b0: c31c f425 6ea5 ef27 5775 3127 2e23 a523
000000c0: 1cf7 5326 eebe f125 88a8 a727 97b6 a927
000000d0: 4e9f 8e27 8bae e226 a4cc af24 2f36 d424
000000e0: 02a1 2926 6d3d 3e27 010f 5125 4a4d d425
000000f0: ff66 2326 079d 0a27 6ee1 1322 913b 9524
00000100: 9542 7c23 8cca 9226 db99 e225 b0da 9026
00000110: db74 7f26 4fc1 0325 21b6 ef25 7e16 5c26
00000120: 7864 a826 397e 8a27 8d17 6627 ac86 0325
00000130: 4c87 8528 5a41 0d26 8d61 8f27 fa5c 0328
00000140: b71e a925 5473 0b27 d124 6c24 d83b 0a27
00000150: cb28 d223 0c1a 6a24 cc89 6424 5e65 6f26
00000160: 7a4e b426 322f 2827 401c ee26 e943 f327
00000170: b330 c925 beb9 4923 71b6 fe25 cb6f 8624
00000180: 59a7 ae24 d821 8125 6652 bf26 2a44 cd26
00000190: 3a2e 7b25 6711 4327 ad96 8326 f797 4c27
000001a0: 06a6 0122 7438 da26 e04f 1922 5e67 7427
000001b0: e4fe 6925 fa99 ee25 3cd2 c026 0e64 1028
000001c0: 6ddc a327 0962 3424 478e 3124 f887 9126
000001d0: 6e5b 4c26 612a 6927 d07a 0e28 b72b 9027
000001e0: b872 f21f a592 fc25 b97a 5f26 be74 cd26
000001f0: b410 2927 19ba 6027 1d0c 6426 7e15 7427
00000200: bc27 a326 a8a7 1326 80f3 6324 a98b 3426
00000210: b73f 0926 3ef2 6a26 e520 2227 c859 0e26
00000220: e42e a521 54bb a527 b492 1427 35cb 4427
00000230: 0666 ae27 926f 5c26 e3df 2525 3acf da26
00000240: 70df dd25 9f9d 1627 83c2 6a26 913a e427
00000250: c791 7e25 ce6f ba27 c002 ff25 949e 6a26
00000260: 4975 1a26 6352 7227 14b8 4d27 ebd5 d825
00000270: d1b7 9324 1adc 9f27 28d6 0c26 5246 cb27
00000280: cd74 5325 272b 3d24 71fa a726 a3ad 0c27
00000290: 39e4 c523 a5e8 5d26 5277 9323 c357 1e26
000002a0: a0ae 5525 1c1a 1328 e6ae 5326 9e59 5528
000002b0: 242c 1526 24ba 0127 39ff 9927 b36b 5427
000002c0: c3f6 6627 f1ae 1f26 6a5f f127 a5bf 1e24
000002d0: 95dc 6d20 1898 0227 c909 e222 e3c9 d125
000002e0: c907 9227 c1a7 5727 ca90 f127 e142 c925
000002f0: 15e3 5026 bcd1 4f27 871f 6826 cfa2 3d25
00000300: d80e 2e26 573b 5526 6ac0 fd26 093b b926
00000310: 2a84 1127 3330 ae26 def1 3b27 07b2 f526
00000320: e816 9827 8a6e 0128 6f9f 9024 7927 7325
00000330: cda0 3e27 f357 b521 d062 fa24 98ea bf25
00000340: dbfc 5426 3c3d c226 69fe 7526 b689 ef27
00000350: b0ab 8327 d357 8523 9eb7 c424 ab35 0d25
00000360: b481 d226 455d 3827 8f29 f725 9a04 d927
00000370: 7911 6d26 170a 5f26 c7e8 8027 6fdf 3227
00000380: 9901 b126 f862 8627 1eaa f827 2045 1126
00000390: b297 0f27 2d18 0327 9593 a526 e40a 7327
000003a0: 6bb4 a626 07b4 4726 a5a5 0a28 098a c227
000003b0: 7003 0f26 0702 5927 cd1a ac26 67a5 8226
000003c0: 8edf 3d27 24e4 0424 9963 4426 cc62 9e26
000003d0: 39d0 8426 9a8c 4726 4f86 d326 682b c627
000003e0: b088 a124 38e1 7727 3898 e426 5c2a 1427
000003f0: f7f5 fc27 121a 3e27 5003 2f27 b9b2 dd27

exp_avg f4 [64]
6e-45 0.0 0.0 6e-45 6e-45 6e-45 0.0 6e-45
6e-45 0.0 6e-45 6e-45 6e-45 0.0 0.0 6e-45
0.0 6e-45 0.0 6e-45 6e-45 0.0 0.0 0.0
6e-45 6e-45 0.006610511 0.0 6e-45 0.0059354515 6e-45 0.0
0.0 0.007367563 6e-45 6e-45 0.0 6e-45 6e-45 6e-45
6e-45 0.0020523441 0.0 0.0 6e-45 0.0 6e-45 6e-45
6e-45 0.0 0.0 0.0 6e-45 0.0 0.0 0.0057090316
6e-45 6e-45 6e-45 0.0 6e-45 0.0 0.0 6e-45
00000000: 0400 0000 0000 0000 0000 0000 0400 0000
00000010: 0400 0000 0400 0000 0000 0000 0400 0000
00000020: 0400 0000 0000 0000 0400 0000 0400 0000
00000030: 0400 0000 0000 0000 0000 0000 0400 0000
00000040: 0000 0000 0400 0000 0000 0000 0400 0000
00000050: 0400 0000 0000 0000 0000 0000 0000 0000
00000060: 0400 0000 0400 0000 fc9c d83b 0000 0000
00000070: 0400 0000 2d7e c23b 0400 0000 0000 0000
00000080: 0000 0000 996b f13b 0400 0000 0400 0000
00000090: 0000 0000 0400 0000 0400 0000 0400 0000
000000a0: 0400 0000 9f80 063b 0000 0000 0000 0000
000000b0: 0400 0000 0000 0000 0400 0000 0400 0000
000000c0: 0400 0000 0000 0000 0000 0000 0000 0000
000000d0: 0400 0000 0000 0000 0000 0000 d412 bb3b
000000e0: 0400 0000 0400 0000 0400 0000 0000 0000
000000f0: 0400 0000 0000 0000 0000 0000 0400 0000

exp_avg_sq f4 [64]
3.873928e-14 0.0 0.0 1.2057934e-15 7.1870497e-16 1.6766602e-14 0.0 4.9135524e-14
5.865632e-15 0.0 1.40473265e-14 2.1307028e-17 8.705023e-15 0.0 0.0 2.956642e-14
0.0 1.5520957e-14 0.0 8.05232e-14 5.048224e-14 0.0 0.0 0.0
1.3528157e-15 8.4972037e-16 0.023475887 0.0 5.141326e-14 0.021497728 1.349194e-13 0.0
0.0 0.023747329 5.2864055e-13 8.14175e-14 0.0 2.3331407e-13 2.3399343e-13 7.9134304e-14
3.081714e-14 0.023966737 0.0 0.0 5.317638e-15 0.0 5.690284e-17 7.8988845e-14
2.4989418e-13 0.0 0.0 0.0 5.7152617e-13 0.0 0.0 0.02100407
1.9730497e-14 6.109149e-14 2.6413747e-14 0.0 2.3567906e-14 0.0 0.0 2.220563e-18
00000000: 5977 2e29 0000 0000 0000 0000 edc5 ad26
00000010: 1127 4f26 2705 9728 0000 0000 6749 5d29
00000020: e854 d327 0000 0000 dc0d 7d28 cc85 c423
00000030: d5d0 1c28 0000 0000 0000 0000 c327 0529
00000040: 0000 0000 e4cc 8b28 0000 0000 7752 b529
00000050: 0f5a 6329 0000 0000 0000 0000 0000 0000
00000060: 17f6 c226 4cea 7426 8150 c03c 0000 0000
00000070: 748b 6729 011c b03c dfe7 172a 0000 0000
00000080: 0000 0000 c289 c23c 91cc 142b fe55 b729
00000090: 0000 0000 1a58 832a 02ba 832a d231 b229
000000a0: bec9 0a29 e455 c43c 0000 0000 0000 0000
000000b0: 8e96 bf27 0000 0000 8235 8324 f8dd b129
000000c0: 8cad 8c2a 0000 0000 0000 0000 0000 0000
000000d0: cdde 202b 0000 0000 0000 0000 ba10 ac3c
000000e0: 6eb7 b128 d990 8929 f4e9 ed28 0000 0000
000000f0: e447 d428 0000 0000 0000 0000 40d9 2322

exp_avg f4 [1, 64]
-6e-45 0.0 0.0 6e-45 -6e-45 6e-45 0.0 6e-45
6e-45 0.0 -6e-45 -6e-45 -6e-45 0.0 0.0 -6e-45
0.0 6e-45 0.0 6e-45 6e-45 0.0 0.0 0.0
-6e-45 6e-45 0.0030695612 0.0 6e-45 0.0033326899 6e-45 0.0
0.0 0.0031444314 -6e-45 6e-45 0.0 6e-45 6e-45 6e-45
-6e-45 0.003087658 0.0 0.0 -6e-45 0.0 6e-45 6e-45
6e-45 0.0 0.0 0.0 -6e-45 0.0 0.0 0.0032925494
6e-45 6e-45 6e-45 0.0 -6e-45 0.0 0.0 -6e-45
00000000: 0400 0080 0000 0000 0000 0000 0400 0000
00000010: 0400 0080 0400 0000 0000 0000 0400 0000
00000020: 0400 0000 0000 0000 0400 0080 0400 0080
00000030: 0400 0080 0000 0000 0000 0000 0400 0080
00000040: 0000 0000 0400 0000 0000 0000 0400 0000
00000050: 0400 0000 0000 0000 0000 0000 0000 0000
00000060: 0400 0080 0400 0000 b12a 493b 0000 0000
00000070: 0400 0000 4269 5a3b 0400 0000 0000 0000
00000080: 0000 0000 ce12 4e3b 0400 0080 0400 0000
00000090: 0000 0000 0400 0000 0400 0000 0400 0000
000000a0: 0400 0080 4e5a 4a3b 0000 0000 0000 0000
000000b0: 0400 0080 0000 0000 0400 0000 0400 0000
000000c0: 0400 0000 0000 0000 0000 0000 0000 0000
000000d0: 0400 0080 0000 0000 0000 0000 d0c7 573b
000000e0: 0400 0000 0400 0000 0400 0000 0000 0000
000000f0: 0400 0080 0000 0000 0000 0000 0400 0080

exp_avg_sq f4 [1, 64]
4.4365904e-15 0.0 0.0 1.289175e-13 1.1756704e-18 3.7203858e-13 0.0 5.1007226e-14
1.9009577e-16 0.0 2.5377655e-17 4.4585138e-17 2.0735807e-15 0.0 0.0 1.1023688e-14
0.0 2.7940286e-14 0.0 9.833315e-13 2.8548773e-13 0.0 0.0 0.0
4.1144392e-16 3.9430783e-14 0.00017831486 0.0 3.3870286e-13 0.00021637723 3.2819826e-14 0.0
0.0 0.00018235401 1.8855357e-11 8.660403e-14 0.0 4.3019345e-13 8.5220665e-13 8.6895016e-14
1.9168284e-14 0.00017866847 0.0 0.0 3.0634103e-16 0.0 9.59327e-19 9.574126e-14
3.8367565e-13 0.0 0.0 0.0 2.436558e-11 0.0 0.0 0.00022341238
1.2410089e-14 8.308388e-13 1.6143613e-13 0.0 1.0614786e-14 0.0 0.0 7.022227e-21
00000000: 53d8 9f27 0000 0000 0000 0000 f125 112a
00000010: 927f ad21 6970 d12a 0000 0000 54b7 6529
00000020: 5e2a 5b25 0000 0000 4b11 ea23 d79c 4d24
00000030: d06a 1527 0000 0000 0000 0000 ca95 4628
00000040: 0000 0000 eaa9 fb28 0000 0000 4064 8a2b
00000050: 1eb7 a02a 0000 0000 0000 0000 0000 0000
00000060: 682e ed25 9994 3129 08fa 3a39 0000 0000
00000070: 3aac be2a 52e3 6239 afce 1329 0000 0000
00000080: 0000 0000 4836 3f39 7dda a52d d303 c329
00000090: 0000 0000 692d f22a f6df 6f2b 91ab c329
000000a0: 0ea7 ac28 f458 3b39 0000 0000 0000 0000
000000b0: f597 b025 0000 0000 5992 8d21 1497 d729
000000c0: 7dfd d72a 0000 0000 0000 0000 0000 0000
000000d0: 6952 d62d 0000 0000 0000 0000 ce43 6a39
000000e0: 6f8f 5f28 3fdc 692b ccc2 352a 0000 0000
000000f0: 0f38 3f28 0000 0000 0000 0000 68a5 041e
