course/week3/conflearn_project/log/epoch=9-step=16000-v1.ckpt (torch, 598398 bytes, 9 tensors)

model.0.weight f4 [64, 768]
000000 86 59 8c 3c 41 5e f5 3a 88 48 fc bb eb 93 43 3c
       0.017132532 0.0018720106 -0.007699076 0.011937122
000010 5f 62 d9 bc 37 37 15 3c a3 97 b7 bb e7 a0 02 bb
       -0.026536165 0.0091074025 -0.0056027933 -0.001993233
000020 be f6 85 3b 51 f9 04 bd 88 6b 06 3b 91 87 61 bc
       0.004088252 -0.03246433 0.002051087 -0.013765232
000030 2e db fc bc cf a0 cd bc 83 0a 05 3d 72 f4 c3 3c
       -0.030866232 -0.025101094 0.032480728 0.023920272
000040 d3 21 8e bc b3 0b dd bc 3d 6e 08 3d d1 48 b9 ba
       -0.017350113 -0.026983118 0.033308256 -0.0014136081
000050 c1 ab df bc ba fa 16 bd 77 0f 06 3d 72 48 55 bc
       -0.027303578 -0.036860205 0.032729592 -0.013017761
000060 84 36 49 bb 8c 50 87 3c 90 d0 79 3c 99 95 ee bb
       -0.003070266 0.0165179 0.015247479 -0.007281017
000070 55 af fd bb 63 4a a3 bc 58 85 d7 3c e1 ee 03 3d
       -0.0077418485 -0.019932931 0.0263087 0.032210235
000080 3b 66 11 bc 97 e0 da bc f9 0f 05 3d d8 c0 1c 3a
       -0.008874471 -0.02671842 0.032485936 0.00059796637
000090 a4 bd 6a bc 9e 84 7d ba df 2f 00 3c ba e3 f1 ba
       -0.01432744 -0.00096709456 0.007823913 -0.0018454709
0000a0 f8 6c c9 bc a4 ff 98 3c 9e 85 e6 3a 52 b6 fe 3c
       -0.024588093 0.018676586 0.0017587428 0.031092796
0000b0 90 0c ef 3c cb 48 aa 3c b9 d4 4f 3c 6b 84 80 bc
       0.029180795 0.020786664 0.012684994 -0.015688142
0000c0 2a 36 ec 3c a1 25 c9 ba 49 55 fb 3b 4e 8e 9f 3c
       0.028834421 -0.0015346297 0.007670079 0.019477036
0000d0 27 25 90 3c ac 24 b0 bc 42 f7 f2 3c ad eb 10 bd
       0.01759584 -0.021501862 0.029658917 -0.035381008
0000e0 e7 36 b4 3c fa d6 9c bc 4b 91 ab bc c8 75 b0 bc
       0.021998836 -0.019145478 -0.020943305 -0.021540537
0000f0 96 8b cb bb f7 07 9e 3c 37 d3 a7 3c f2 50 bf 3b
       -0.0062117083 0.019290907 0.020486457 0.005838507
000100 82 23 2c 3c 81 9c b8 bc 17 5b e4 3c 66 b9 81 bb
       0.010506513 -0.022535564 0.027875466 -0.003958869
000110 75 fc c7 bc ba 2c 14 bd c1 16 43 3b f0 e2 16 bd
       -0.024412373 -0.036175467 0.00297682 -0.03683752
000120 f7 fc e4 3c 8d 7b 09 ba 9b a4 c9 bc 5c bf 23 bb
       0.027952654 -0.0005244546 -0.024614623 -0.0024985885
000130 31 c1 d8 3c 98 72 8c 3c 83 76 67 3c 25 9a 07 bc
       0.026459308 0.017144486 0.0141273765 -0.008276497
000140 d8 d8 0f 3c 8c 05 f3 bc 8b 3c ad 3c 57 1b ee bc
       0.008779727 -0.02966573 0.021147033 -0.029065771
000150 f4 e2 b9 3c 5a e3 d4 ba 9f bf a3 3b 79 a3 91 3b
       0.022691227 -0.0016242072 0.0049972082 0.0044445363
000160 bc 51 04 3d 76 e5 9f 3c c5 5c bb 3b 8e 00 f4 3c
       0.03230451 0.019518595 0.005717846 0.02978542
000170 48 13 87 bc f5 a9 44 3c 89 57 16 3d 70 c4 3e 3c
       -0.016488686 0.012003412 0.036704574 0.011643514
000180 06 65 25 bc 42 6b b4 bc 4f fe 0b 3d 3b 1b d7 39
       -0.010094887 -0.0220238 0.034178074 0.00041028284
000190 9e fa 3c bb 2d ab 02 bc 6a 04 a8 3b 2d f5 b1 bc
       -0.0028835903 -0.007975382 0.0051274793 -0.021723354
0001a0 b6 f8 f5 3c d0 b8 30 3c ed 5f ff 3c 00 75 bd bb
       0.030025821 0.01078625 0.03117367 -0.0057817698
0001b0 37 70 e5 bc 65 e3 61 b9 fd 0a b9 3c 4f 95 91 3c
       -0.02800761 -0.00021542383 0.022588247 0.017771391
0001c0 e9 f6 1b bc b8 f1 db bc 3a bd 4b 3c d9 61 ad bc
       -0.009519317 -0.026848659 0.012435252 -0.021164821
0001d0 1f 32 9e bc 98 83 cb 3c bc 28 c5 bc d1 dd bd bc
       -0.019311009 0.024843022 -0.024067275 -0.02317706
0001e0 dd 6b 75 bb b8 21 55 3c 2e e1 e2 bc af bf 56 3b
       -0.0037448325 0.013008527 -0.027695265 0.003276806
0001f0 e5 65 11 3c 96 72 d9 bb 12 c1 eb 3c 1b 8d fd 3c
       0.008874391 -0.006635974 0.028778587 0.030951073
000200 29 df 72 bc d0 f0 82 bc fd d8 c8 bb 1f 13 26 3c
       -0.014823713 -0.015983969 -0.0061293826 0.010136395
000210 a9 b3 9a 3c a1 62 c9 3c f7 c8 b8 bc 0e cc 6a 3c
       0.018884497 0.024583163 -0.022556765 0.014330877
000220 99 a4 ab 3c 32 d9 a7 bc 30 68 83 bc b3 87 9b bb
       0.02095251 -0.020489309 -0.016040891 -0.004746401
000230 f5 1a a9 bc 7d 43 bf 3c 54 6a a4 bc cd 27 4b bc
       -0.020642737 0.02334761 -0.020070232 -0.012399626
000240 c7 23 37 bc b7 eb 16 bc 5f 4d db 3c 7c 2e 22 bb
       -0.011177964 -0.009211472 0.026770292 -0.0024746945
000250 29 7f f6 3c dd 6d 9b bc 3a cd 38 bc 5d b3 6c bc
       0.030089932 -0.018973285 -0.011279399 -0.01444706
000260 a8 a4 d9 bc 44 dc be bc 5d f8 71 3c d6 df b2 bb
       -0.026567772 -0.02329839 0.014768687 -0.005458812
000270 24 e0 ef bc c8 db de bc c6 81 bf 3b 26 47 03 bd
       -0.029281683 -0.02720441 0.0058443276 -0.032050274
000280 c2 d9 3b bc c6 1d c1 3c ac 0d b7 bc 75 ce 8f 3c
       -0.011465492 0.023573767 -0.022345386 0.017554501
000290 67 8a 3e 3c 15 56 62 bc da ba 91 bb dd 3a 34 bc
       0.011629677 -0.013814469 -0.0044473233 -0.011000362
0002a0 e7 c9 53 3c 56 37 f2 bc 90 6a 4d 3b ef 88 aa 3b
       0.012926555 -0.029567402 0.0031344034 0.005204312
0002b0 0b 6e 9c bc 7d ba 82 3c ff 38 c0 3c 03 1d db bc
       -0.019095441 0.015958065 0.023464678 -0.026747232
0002c0 09 e5 de 3c de 4c 49 3c 10 69 d5 3c 6d 4b 23 bc
       0.027208822 0.012286393 0.026051074 -0.009966713
0002d0 8d c2 f0 bc e3 df 09 bd 0f 14 1a 3d ff c4 e7 3c
       -0.029389644 -0.03366078 0.037616786 0.028292177
0002e0 c1 d8 15 bd 7d 09 cf bc 05 0e 95 bc f0 80 81 3c
       -0.036583666 -0.025273079 -0.018195162 0.015808553
0002f0 6d 02 04 bd 55 51 c2 3c af 13 bd 3c a6 d0 14 3d
       -0.032228876 0.023720423 0.023080675 0.036331795
000300 45 5d c5 bc 64 4a 06 bc 62 df a8 3c f1 f0 ef ba
       -0.024092326 -0.008196447 0.02061433 -0.0018306059
000310 d9 74 c8 3c d4 85 7f bb e8 55 0f 3d c0 ff 19 3d
       0.02446978 -0.003898968 0.034994036 0.037597418
000320 f3 c6 b2 b8 19 c3 1c 3c c0 4e 20 3c 81 f1 f6 3c
       -8.5247586e-05 0.009567999 0.0097844 0.030144455
000330 6b 71 25 bb 48 b7 ae 3c ae aa b3 bc 2b 09 c5 3c
       -0.0025244604 0.02132763 -0.021931972 0.024052223
000340 8e 07 93 3c 96 e2 bf 3b 23 f6 c5 3c c9 56 e0 bc
       0.017947938 0.0058558686 0.024165219 -0.027385132
000350 2c 5a 12 bd f3 e4 c3 bb 53 94 a5 bc f3 aa 23 3d
       -0.035730526 -0.0059782206 -0.020212328 0.03995795
000360 8b af 27 bc 27 5e 00 bc 86 fe f3 bc 6e 83 ae bc
       -0.010234724 -0.007834948 -0.029784452 -0.021302905
000370 70 6d eb 3c 20 fb 00 bd 4e 60 d5 3c 5c 44 ac 3c
       0.028738707 -0.03148949 0.026046898 0.02102869
000380 44 5d 66 bc 98 da e6 ba ce 86 0c bb 4d 66 07 3d
       -0.014060322 -0.0017612753 -0.0021442655 0.033056546
000390 34 c9 c9 3c d1 9f ea bc 0a d5 d3 bc 80 ba 82 b9
       0.024632074 -0.02864066 -0.02585842 -0.00024934486
0003a0 7c d5 14 3b 3b b7 d1 bb 98 3a ab bc 27 f1 99 3c
       0.0022710254 -0.0064000166 -0.020901963 0.018791748
0003b0 9c 62 3d 3b d3 68 b2 3c fc 94 90 3c ae a8 b5 bc
       0.0028897887 0.0217785 0.017649166 -0.02217516
0003c0 36 c1 b6 bc dc 7d 45 3b a5 99 c6 bc a5 f9 b6 bb
       -0.022308927 0.0030134832 -0.024243185 -0.005583959
0003d0 5c 9d 00 bc 28 62 ee 3c a6 b5 cb 3c be 80 10 bb
       -0.007850017 0.029099539 0.02486689 -0.0022049393
0003e0 fd f5 82 bc f0 2d 51 bc 6c ec 65 3b 2a 55 f4 3c
       -0.015986437 -0.0127673 0.0035083545 0.029825766
0003f0 40 f8 9c bc b8 83 21 bb 29 6b cd bb d8 9b 88 3c
       -0.019161344 -0.002464516 -0.006268878 0.016675875

model.0.bias f4 [64]
000000 e1 03 d2 bc dc 5c 82 bc b7 81 f9 bb 87 bf f3 bc
       -0.025636615 -0.01591342 -0.00761434 -0.029754413
000010 68 1f 3d bd da 90 e4 3c cf e2 5f bb 29 b1 f4 3c
       -0.04617253 0.027901102 -0.0034162288 0.029869633
000020 ab b3 16 bd 91 cb 15 3c 4b 03 99 bc a9 0c fa 3c
       -0.03679244 0.009142772 -0.018678328 0.030523615
000030 2b b4 08 3d 3b 4a 10 bc c0 f1 1d bc 70 60 69 3c
       0.033374947 -0.00880676 -0.009640157 0.014244184
000040 60 be 44 3c 69 43 e9 3c 91 9b 38 3c cb 4b 12 bb
       0.01200828 0.028474526 0.011267559 -0.0022323008
000050 c4 d3 98 bc e3 fc 9d bc 61 c0 f5 3c 90 21 b6 3b
       -0.018655665 -0.019285625 0.02999896 0.0055582
000060 69 37 14 39 e0 c8 ef bb e7 55 51 bc a0 41 08 3d
       0.00014135022 -0.0073176473 -0.012776828 0.03326571
000070 5b 25 ee bc b7 4b 80 bc a4 02 a2 3c 3e 05 bd 3b
       -0.029070547 -0.015661104 0.01977665 0.005768447
000080 ec de c2 3c dc 9a 4f 3c 9c dc 7e 3c 75 7b 8c 3c
       0.023787938 0.012671199 0.015555527 0.017148713
000090 36 a7 42 bc cf c3 13 bd df 8e eb bc 59 ba f1 3c
       -0.0118806865 -0.03607541 -0.02875465 0.029507803
0000a0 cf 09 d6 3b 5b 02 a7 bc aa 60 94 3c 4e d8 a0 bc
       0.006531931 -0.020386865 0.0181125 -0.019634392
0000b0 55 77 4e bc d3 06 9a bb b2 80 8d 3c cb 2a 4b 3b
       -0.012601693 -0.0047005205 0.01727328 0.0031000848
0000c0 c2 22 0c bd 11 85 6a 3b f1 53 d5 bb 50 92 28 bc
       -0.034212835 0.003578488 -0.0065102507 -0.01028879
0000d0 89 3d be bc a8 e2 60 3d 53 b1 a8 bc 64 8f 8d bc
       -0.023222702 0.054903656 -0.020592367 -0.017280288
0000e0 e8 c6 af bc fc 81 9b 3c 4a e3 d0 bb 1b d3 0f bd
       -0.02145715 0.01898288 -0.006374751 -0.035113435
0000f0 a3 32 b2 bc 94 6c 5b bc 2a b8 e2 bc 51 12 d2 3c
       -0.021752661 -0.013392586 -0.027675707 0.0256435

model.2.weight f4 [1, 64]
000000 72 b2 7c 3c ac 2d 9b bd e7 04 25 bc b4 67 84 bd
       0.015423404 -0.075770706 -0.01007197 -0.06465092
000010 d1 45 be 3f 68 b0 85 3c b2 27 7e bd 30 5d 4e bc
       1.4865056 0.016319469 -0.062049575 -0.01259546
000020 2d 13 4d bc 6c a8 3c bd a0 7c ef 3d 95 c0 f0 3a
       -0.012516779 -0.046059057 0.11693692 0.0018367941
000030 c0 45 32 bd 1a 5c ed bc 94 f3 f5 3d 0c 86 e8 3d
       -0.04352355 -0.028974582 0.120093495 0.113536924
000040 c0 1a c7 bd e8 3b c6 bd a0 c4 00 3d 09 38 58 3d
       -0.09721899 -0.09679395 0.031437516 0.052787814
000050 c9 e1 b6 3f c1 1f ca 3f 37 d4 e0 bd f5 92 96 3d
       1.4287654 1.579094 -0.10977977 0.073522486
000060 37 b3 ba 3f d3 50 8f 3b bc 8c ed 3c 7d c1 7d 3c
       1.4585942 0.0043736487 0.028997771 0.015488026
000070 38 55 e3 3d 2c 98 87 3d c8 a7 8b 3c f0 4f 56 bc
       0.111002386 0.06620821 0.017047778 -0.013080582
000080 74 7d 9c 3d 80 8c fd 3b 42 71 b2 3f 24 e7 b2 3f
       0.07641116 0.007737696 1.3940814 1.3976789
000090 78 d0 e2 3c 97 25 df bd 20 6f e4 bc 0d ac f4 be
       0.027687296 -0.108958416 -0.02788502 -0.47787514
0000a0 bc 79 e4 3d 30 c8 ba 3d 85 5c f8 be a7 ec b5 bc
       0.111560315 0.09120214 -0.48508087 -0.022207571
0000b0 9e fd 9d bd cb 0b 92 bd 52 8c 96 3d f1 e2 8c ba
       -0.07714389 -0.071311556 0.07350983 -0.0010748786
0000c0 44 5e e4 bd 60 cf 85 bd 02 51 c7 bc 25 3c a9 bd
       -0.11150792 -0.06533694 -0.02433062 -0.08263425
0000d0 46 bc 7a bd ca b2 04 bf 9b 95 ed 3b 76 8e 84 3d
       -0.061214708 -0.5183531 0.0072505004 0.06472485
0000e0 38 53 6d 3d 88 a8 bf 3f 65 aa cd 3f d3 a5 59 bc
       0.05794069 1.4973307 1.6067625 -0.0132841645
0000f0 40 06 55 bb d5 62 64 bd 30 d1 b7 bd 2c 25 36 bd
       -0.0032504946 -0.055758316 -0.08975446 -0.044469044

exp_avg f4 [64, 768]
000000 04 00 00 80 04 00 00 80 04 00 00 80 04 00 00 80
       -6e-45 -6e-45 -6e-45 -6e-45
000010 04 00 00 00 04 00 00 00 04 00 00 00 04 00 00 80
       6e-45 6e-45 6e-45 -6e-45
000020 04 00 00 80 04 00 00 80 04 00 00 00 04 00 00 80
       -6e-45 -6e-45 6e-45 -6e-45
000030 04 00 00 80 04 00 00 00 04 00 00 80 04 00 00 00
       -6e-45 6e-45 -6e-45 6e-45
000040 04 00 00 00 04 00 00 80 04 00 00 00 04 00 00 00
       6e-45 -6e-45 6e-45 6e-45
000050 04 00 00 80 04 00 00 00 04 00 00 00 04 00 00 00
       -6e-45 6e-45 6e-45 6e-45
000060 04 00 00 00 04 00 00 00 04 00 00 80 04 00 00 80
       6e-45 6e-45 -6e-45 -6e-45
000070 04 00 00 00 04 00 00 00 04 00 00 00 04 00 00 80
       6e-45 6e-45 6e-45 -6e-45
000080 04 00 00 00 04 00 00 00 04 00 00 80 04 00 00 00
       6e-45 6e-45 -6e-45 6e-45
000090 04 00 00 80 04 00 00 80 04 00 00 00 04 00 00 80
       -6e-45 -6e-45 6e-45 -6e-45
0000a0 04 00 00 80 04 00 00 00 04 00 00 00 04 00 00 80
       -6e-45 6e-45 6e-45 -6e-45
0000b0 04 00 00 80 04 00 00 00 04 00 00 00 04 00 00 00
       -6e-45 6e-45 6e-45 6e-45
0000c0 04 00 00 80 04 00 00 80 04 00 00 80 04 00 00 00
       -6e-45 -6e-45 -6e-45 6e-45
0000d0 04 00 00 00 04 00 00 00 04 00 00 80 04 00 00 00
       6e-45 6e-45 -6e-45 6e-45
0000e0 04 00 00 80 04 00 00 00 04 00 00 80 04 00 00 80
       -6e-45 6e-45 -6e-45 -6e-45
0000f0 04 00 00 80 04 00 00 80 04 00 00 00 04 00 00 80
       -6e-45 -6e-45 6e-45 -6e-45
000100 04 00 00 00 04 00 00 80 04 00 00 00 04 00 00 80
       6e-45 -6e-45 6e-45 -6e-45
000110 04 00 00 80 04 00 00 00 04 00 00 80 04 00 00 00
       -6e-45 6e-45 -6e-45 6e-45
000120 04 00 00 00 04 00 00 80 04 00 00 80 04 00 00 00
       6e-45 -6e-45 -6e-45 6e-45
000130 04 00 00 80 04 00 00 80 04 00 00 00 04 00 00 00
       -6e-45 -6e-45 6e-45 6e-45
000140 04 00 00 80 04 00 00 00 04 00 00 00 04 00 00 00
       -6e-45 6e-45 6e-45 6e-45
000150 04 00 00 80 04 00 00 80 04 00 00 80 04 00 00 80
       -6e-45 -6e-45 -6e-45 -6e-45
000160 04 00 00 00 04 00 00 00 04 00 00 80 04 00 00 80
       6e-45 6e-45 -6e-45 -6e-45
000170 04 00 00 00 04 00 00 00 04 00 00 80 04 00 00 80
       6e-45 6e-45 -6e-45 -6e-45
000180 04 00 00 00 04 00 00 80 04 00 00 80 04 00 00 80
       6e-45 -6e-45 -6e-45 -6e-45
000190 04 00 00 00 04 00 00 80 04 00 00 80 04 00 00 00
       6e-45 -6e-45 -6e-45 6e-45
0001a0 04 00 00 00 04 00 00 80 04 00 00 00 04 00 00 00
       6e-45 -6e-45 6e-45 6e-45
0001b0 04 00 00 00 04 00 00 80 04 00 00 80 04 00 00 00
       6e-45 -6e-45 -6e-45 6e-45
0001c0 04 00 00 00 04 00 00 80 04 00 00 00 04 00 00 00
       6e-45 -6e-45 6e-45 6e-45
0001d0 04 00 00 00 04 00 00 80 04 00 00 00 04 00 00 80
       6e-45 -6e-45 6e-45 -6e-45
0001e0 04 00 00 00 04 00 00 80 04 00 00 00 04 00 00 00
       6e-45 -6e-45 6e-45 6e-45
0001f0 04 00 00 80 04 00 00 00 04 00 00 00 04 00 00 00
       -6e-45 6e-45 6e-45 6e-45
000200 04 00 00 00 04 00 00 00 04 00 00 80 04 00 00 00
       6e-45 6e-45 -6e-45 6e-45
000210 04 00 00 80 04 00 00 00 04 00 00 00 04 00 00 00
       -6e-45 6e-45 6e-45 6e-45
000220 04 00 00 80 04 00 00 80 04 00 00 80 04 00 00 00
       -6e-45 -6e-45 -6e-45 6e-45
000230 04 00 00 00 04 00 00 00 04 00 00 80 04 00 00 00
       6e-45 6e-45 -6e-45 6e-45
000240 04 00 00 00 04 00 00 00 04 00 00 00 04 00 00 80
       6e-45 6e-45 6e-45 -6e-45
000250 04 00 00 00 04 00 00 00 04 00 00 00 04 00 00 00
       6e-45 6e-45 6e-45 6e-45
000260 04 00 00 80 04 00 00 80 04 00 00 80 04 00 00 80
       -6e-45 -6e-45 -6e-45 -6e-45
000270 04 00 00 80 04 00 00 80 04 00 00 80 04 00 00 00
       -6e-45 -6e-45 -6e-45 6e-45
000280 04 00 00 00 04 00 00 80 04 00 00 80 04 00 00 80
       6e-45 -6e-45 -6e-45 -6e-45
000290 04 00 00 80 04 00 00 80 04 00 00 80 04 00 00 00
       -6e-45 -6e-45 -6e-45 6e-45
0002a0 04 00 00 80 04 00 00 80 04 00 00 80 04 00 00 80
       -6e-45 -6e-45 -6e-45 -6e-45
0002b0 04 00 00 80 04 00 00 00 04 00 00 80 04 00 00 00
       -6e-45 6e-45 -6e-45 6e-45
0002c0 04 00 00 80 04 00 00 00 04 00 00 00 04 00 00 00
       -6e-45 6e-45 6e-45 6e-45
0002d0 04 00 00 80 04 00 00 80 04 00 00 80 04 00 00 00
       -6e-45 -6e-45 -6e-45 6e-45
0002e0 04 00 00 00 04 00 00 00 04 00 00 80 04 00 00 00
       6e-45 6e-45 -6e-45 6e-45
0002f0 04 00 00 00 04 00 00 00 04 00 00 00 04 00 00 80
       6e-45 6e-45 6e-45 -6e-45
000300 04 00 00 80 04 00 00 00 04 00 00 80 04 00 00 00
       -6e-45 6e-45 -6e-45 6e-45
000310 04 00 00 80 04 00 00 00 04 00 00 80 04 00 00 80
       -6e-45 6e-45 -6e-45 -6e-45
000320 04 00 00 00 04 00 00 80 04 00 00 80 04 00 00 00
       6e-45 -6e-45 -6e-45 6e-45
000330 04 00 00 00 04 00 00 00 04 00 00 80 04 00 00 80
       6e-45 6e-45 -6e-45 -6e-45
000340 04 00 00 00 04 00 00 00 04 00 00 00 04 00 00 80
       6e-45 6e-45 6e-45 -6e-45
000350 04 00 00 00 04 00 00 00 04 00 00 80 04 00 00 80
       6e-45 6e-45 -6e-45 -6e-45
000360 04 00 00 00 04 00 00 00 04 00 00 00 04 00 00 80
       6e-45 6e-45 6e-45 -6e-45
000370 04 00 00 80 04 00 00 00 04 00 00 00 04 00 00 80
       -6e-45 6e-45 6e-45 -6e-45
000380 04 00 00 00 04 00 00 80 04 00 00 80 04 00 00 80
       6e-45 -6e-45 -6e-45 -6e-45
000390 04 00 00 00 04 00 00 00 04 00 00 00 04 00 00 80
       6e-45 6e-45 6e-45 -6e-45
0003a0 04 00 00 00 04 00 00 80 04 00 00 80 04 00 00 80
       6e-45 -6e-45 -6e-45 -6e-45
0003b0 04 00 00 80 04 00 00 00 04 00 00 00 04 00 00 00
       -6e-45 6e-45 6e-45 6e-45
0003c0 04 00 00 00 04 00 00 00 04 00 00 00 04 00 00 00
       6e-45 6e-45 6e-45 6e-45
0003d0 04 00 00 00 04 00 00 80 04 00 00 00 04 00 00 80
       6e-45 -6e-45 6e-45 -6e-45
0003e0 04 00 00 80 04 00 00 80 04 00 00 80 04 00 00 80
       -6e-45 -6e-45 -6e-45 -6e-45
0003f0 04 00 00 00 04 00 00 80 04 00 00 00 04 00 00 00
       6e-45 -6e-45 6e-45 6e-45

exp_avg_sq f4 [64, 768]
000000 3e d4 0c 22 ec db 4a 25 89 f0 57 25 60 e0 09 24
       1.9085898e-18 1.759522e-16 1.8729774e-16 2.9897193e-17
000010 f6 4d aa 24 1d 47 5c 25 64 53 99 25 41 fa 8f 23
       7.385782e-17 1.9106052e-16 2.6597777e-16 1.5610078e-17
000020 1f 36 12 24 0b 03 0d 25 34 fe a4 25 46 e7 d6 21
       3.1704546e-17 1.2230832e-16 2.862172e-16 1.4562422e-18
000030 82 ab 20 24 2c 35 99 24 58 84 de 24 c5 73 87 26
       3.4839742e-17 6.644325e-17 9.650135e-17 9.398886e-16
000040 c0 c1 4d 25 81 ff 91 26 6b dd 76 23 c7 5c 12 22
       1.7846561e-16 1.0130651e-15 1.3382574e-17 1.9835806e-18
000050 29 4c ab 25 f6 77 ef 23 92 9f 89 26 5a 65 fc 25
       2.971538e-16 2.5963237e-17 9.549536e-16 4.378371e-16
000060 02 0e 99 24 cd e7 2a 23 b0 29 dc 24 5f e0 6d 21
       6.63769e-17 9.264804e-18 9.548041e-17 8.0595676e-19
000070 ad f2 de 24 06 22 86 25 0d 7b d5 25 8e 0e ac 22
       9.668826e-17 2.326835e-16 3.7032992e-16 4.6636104e-18
000080 f5 f3 8e 24 d9 83 a1 25 c4 7e 92 25 e0 cd 87 23
       6.199596e-17 2.8018391e-16 2.5412862e-16 1.472392e-17
000090 73 b6 fb 25 d3 b7 1a 22 bc e3 af 25 0b 0a 62 25
       4.3665192e-16 2.0968208e-18 3.051198e-16 1.9605778e-16
0000a0 57 2d 11 24 d9 cc 29 25 c1 6e 2b 25 52 1d f3 24
       3.1480267e-17 1.4727818e-16 1.486941e-16 1.0543412e-16
0000b0 0b bb 3e 24 24 3b 44 26 28 17 9f 25 03 98 a9 22
       4.1358114e-17 6.808131e-16 2.7597795e-16 4.596849e-18
0000c0 1f e0 c2 24 16 3c 4a 24 cf f3 ff 25 c5 c1 20 26
       8.4513764e-17 4.3852663e-17 4.440066e-16 5.577376e-16
0000d0 b4 22 e4 25 87 a6 2f 25 d8 ed 67 23 8d 71 4f 23
       3.957521e-16 1.5235252e-16 1.25729005e-17 1.1245538e-17
0000e0 40 1c 6f 24 ad ca a7 25 50 99 85 23 a4 d1 10 24
       5.1848793e-17 2.910722e-16 1.448482e-17 3.1402595e-17
0000f0 3a ab 90 24 a3 22 4b 25 a9 ab 97 21 fe c3 59 23
       6.2740114e-17 1.7619179e-16 1.0277596e-18 1.18050965e-17
000100 5d b6 7b 22 3b dc c2 24 c6 6b 53 24 af 52 bf 24
       3.4113385e-18 8.4507174e-17 4.584462e-17 8.297312e-17
000110 2d 69 c8 24 18 4a 4a 23 a0 cd 40 24 a8 4f c6 24
       8.691435e-17 1.0966132e-17 4.1807535e-17 8.6003755e-17
000120 f3 ad 14 25 a0 eb e9 25 bf 46 cc 25 f7 5e a1 23
       1.289589e-16 4.0578723e-16 3.5436298e-16 1.7495874e-17
000130 d6 00 dd 26 5c f8 50 24 76 df ec 25 04 86 5e 26
       1.5335182e-15 4.531318e-17 4.1090897e-16 7.720335e-16
000140 c7 9f e3 23 3b 2c 75 25 d5 5f b4 22 ed cd 5c 25
       2.4679058e-17 2.1265348e-16 4.8890564e-18 1.9151729e-16
000150 b5 18 6a 22 c1 16 70 23 39 60 03 23 5f d2 ca 24
       3.1725993e-18 1.3015244e-17 7.1219e-18 8.795992e-17
000160 ad 95 05 25 94 0f a1 25 a2 3f 46 25 45 5d 48 26
       1.1586623e-16 2.7939604e-16 1.7195322e-16 6.9515343e-16
000170 b6 ee 06 24 62 26 dd 21 1a 51 50 24 8f 3b a1 22
       2.9258814e-17 1.4985702e-18 4.5171506e-17 4.3702198e-18
000180 9e aa d7 22 d5 0f 16 24 f3 74 1a 25 14 b8 0d 25
       5.8456515e-18 3.2539475e-17 1.3396995e-16 1.2292169e-16
000190 8f 18 a0 23 f9 64 92 25 e7 08 de 24 33 e8 94 25
       1.7357636e-17 2.5395384e-16 9.6292234e-17 2.5831252e-16
0001a0 c6 db 3e 22 45 01 3e 25 4f 82 7e 21 39 a7 e2 25
       2.5866149e-18 1.6480303e-16 8.623101e-19 3.9318065e-16
0001b0 2e 82 bc 23 9e bb 56 24 7c 8a 1e 25 18 6f 71 26
       2.0438134e-17 4.656277e-17 1.3751236e-16 8.376423e-16
0001c0 5f 5c 05 26 c4 83 06 23 7a 55 79 22 11 52 13 25
       4.626883e-16 7.292057e-18 3.3791044e-18 1.2778023e-16
0001d0 96 b7 d8 24 f5 36 ce 25 4c 3a 69 26 c4 08 d4 25
       9.3986074e-17 3.5772544e-16 8.091712e-16 3.6782078e-16
0001e0 f8 95 5c 22 2c d4 21 24 d1 a4 9c 24 d0 79 53 25
       2.9894953e-18 3.5091027e-17 6.7933425e-17 1.8342604e-16
0001f0 c0 5f 6a 25 11 d6 ac 25 2f df a7 24 e2 ef c9 25
       2.0328706e-16 2.99823e-16 7.280279e-17 3.5030493e-16
000200 46 51 23 25 d2 92 66 24 47 2d d0 22 c1 1c 73 24
       1.4165533e-16 4.999766e-17 5.6426452e-18 5.271658e-17
000210 74 1c 9b 24 cc fd da 24 bb dc 87 25 cb 11 76 24
       6.7268736e-17 9.497238e-17 2.356834e-16 5.3357818e-17
000220 3c 11 d8 21 22 8e 04 26 e1 88 83 25 d5 3b b5 25
       1.4641291e-18 4.5989326e-16 2.281763e-16 3.143904e-16
000230 e1 ea 01 26 94 fb c4 24 4a 25 52 23 b0 e4 2f 25
       4.5074186e-16 8.542764e-17 1.1392019e-17 1.5256313e-16
000240 9a 88 34 24 44 e4 75 25 52 c0 88 24 ec 2f 41 26
       3.9146984e-17 2.1327702e-16 5.93064e-17 6.702527e-16
000250 c5 66 d5 23 d2 9a 18 26 32 46 16 24 be fd c2 24
       2.3137031e-17 5.2945414e-16 3.2585523e-17 8.4563945e-17
000260 41 48 a5 24 d6 a7 d4 25 3d 52 ae 25 c3 a8 7c 24
       7.1679746e-17 3.6889868e-16 3.0239915e-16 5.4786736e-17
000270 af 1f 81 22 4f c3 f5 25 c5 b3 82 24 e3 8d 21 26
       3.4999066e-18 4.2633071e-16 5.6683054e-17 5.605039e-16
000280 46 40 ac 23 f9 c2 0d 23 08 3c 28 25 ad 4d 5b 25
       1.8675498e-17 7.684912e-18 1.4592017e-16 1.902154e-16
000290 85 6a 0b 23 ef 13 ca 24 bb 29 03 22 3e 6f 34 24
       7.5577615e-18 8.7637304e-17 1.7775903e-18 3.9125504e-17
0002a0 af 13 8e 23 de 8f 6e 26 8b e8 aa 24 f3 9d af 26
       1.5404007e-17 8.2767814e-16 7.411969e-17 1.2185877e-15
0002b0 2c 34 80 24 4d 5c 44 25 b1 d7 01 26 d4 97 be 25
       5.5599534e-17 1.7031563e-16 4.504818e-16 3.306263e-16
0002c0 96 be c1 25 b3 0f 3f 24 fd 84 40 26 a9 52 fb 22
       3.360931e-16 4.142982e-17 6.6793614e-16 6.8121206e-18
0002d0 96 32 70 21 1b ef 55 25 03 34 fa 22 34 7b 05 24
       8.1382113e-19 1.8555817e-16 6.7817705e-18 2.8944135e-17
0002e0 21 45 e0 25 f5 bc bb 25 f7 ca 3f 26 26 f7 4d 24
       3.890465e-16 3.256737e-16 6.6541505e-16 4.4661632e-17
0002f0 38 2c 9c 24 28 35 c9 25 ef 4c 99 24 9e b3 b9 23
       6.7729125e-17 3.4903962e-16 6.6483504e-17 2.0133811e-17
000300 d7 2c aa 24 82 eb 9a 24 88 30 61 25 a3 1b 13 25
       7.380171e-17 6.718582e-17 1.9532082e-16 1.2759581e-16
000310 b3 32 68 25 40 5f 16 25 bb 9b 97 25 ba 0b 6d 25
       2.013997e-16 1.3042698e-16 2.6299852e-16 2.0560446e-16
000320 22 06 f7 25 ce 15 4d 26 34 09 7e 23 84 9c d4 23
       4.2851826e-16 7.1153213e-16 1.37713164e-17 2.3051373e-17
000330 34 31 9e 25 53 30 56 22 f2 5e 7c 23 dc 0d 6c 24
       2.7441972e-16 2.902799e-18 1.3681053e-17 5.1186082e-17
000340 b1 83 d4 24 35 cd 2b 25 6a 81 8d 24 ce 87 42 26
       9.216344e-17 1.4901413e-16 6.136824e-17 6.749132e-16
000350 f1 66 ca 25 5b 04 51 22 09 4c 34 23 a0 ef b0 23
       3.511117e-16 2.8327088e-18 9.773921e-18 1.9183443e-17
000360 05 72 22 25 0f d2 8d 25 5a f3 2d 24 33 6b 2f 26
       1.4089891e-16 2.4601942e-16 3.7719522e-17 6.0860604e-16
000370 cb ca dc 24 f1 c1 e7 24 b2 93 cc 25 be 0e 9d 25
       9.5753336e-17 1.0050883e-16 3.548844e-16 2.7245148e-16
000380 20 64 16 25 e4 d7 ec 25 ee 95 53 26 85 7f 73 24
       1.304435e-16 4.1085767e-16 7.3408523e-16 5.280024e-17
000390 d3 82 73 25 49 16 4a 25 97 1c f0 24 6b d0 c6 25
       2.1121215e-16 1.7528258e-16 1.0413184e-16 3.4488754e-16
0003a0 2c ad 02 25 09 24 ee 24 8d 0b 68 26 cd 1d 1d 26
       1.1334376e-16 1.0327709e-16 8.0506824e-16 5.4510705e-16
0003b0 f0 02 85 24 cb ee b3 25 e5 fe 03 25 9c 27 07 25
       5.768453e-17 3.1213363e-16 1.14488e-16 1.1722804e-16
0003c0 48 b9 9d 25 5a d8 81 22 68 f5 90 24 7a 89 09 25
       2.736071e-16 3.519459e-18 6.286578e-17 1.1929435e-16
0003d0 f7 ee d7 24 c2 c5 91 24 a9 c7 12 25 90 db 17 26
       9.364621e-17 6.321874e-17 1.2731129e-16 5.268621e-16
0003e0 c0 c9 2a 23 38 04 d6 25 32 57 72 25 f2 c0 47 25
       9.258441e-18 3.712594e-16 2.1019697e-16 1.7325871e-16
0003f0 d1 bc 57 26 86 8a a0 25 37 85 81 25 32 75 44 26
       7.4849003e-16 2.7849443e-16 2.2468203e-16 6.815999e-16

exp_avg f4 [64]
000000 04 00 00 00 04 00 00 00 04 00 00 00 04 00 00 00
       6e-45 6e-45 6e-45 6e-45
000010 37 85 1b 3d 00 00 00 00 04 00 00 00 00 00 00 00
       0.03796884 0.0 6e-45 0.0
000020 04 00 00 00 00 00 00 00 00 00 00 00 04 00 00 00
       6e-45 0.0 0.0 6e-45
000030 00 00 00 00 04 00 00 00 00 00 00 00 00 00 00 00
       0.0 6e-45 0.0 0.0
000040 00 00 00 00 00 00 00 00 00 00 00 00 04 00 00 00
       0.0 0.0 0.0 6e-45
000050 fa ac 16 3d d8 06 26 3d 04 00 00 00 04 00 00 00
       0.036786057 0.04053387 6e-45 6e-45
000060 59 db 19 3d 04 00 00 00 04 00 00 00 04 00 00 00
       0.0375627 6e-45 6e-45 6e-45
000070 00 00 00 00 00 00 00 00 00 00 00 00 00 00 00 00
       0.0 0.0 0.0 0.0
000080 04 00 00 00 00 00 00 00 49 27 12 3d b0 4b 11 3d
       6e-45 0.0 0.035681996 0.03547257
000090 00 00 00 00 04 00 00 00 00 00 00 00 3a 8d 49 bc
       0.0 6e-45 0.0 -0.012301737
0000a0 04 00 00 00 00 00 00 00 4a 98 4c bc 04 00 00 00
       6e-45 0.0 -0.01248748 6e-45
0000b0 00 00 00 00 04 00 00 00 00 00 00 00 04 00 00 00
       0.0 6e-45 0.0 6e-45
0000c0 00 00 00 00 00 00 00 00 04 00 00 00 04 00 00 00
       0.0 0.0 6e-45 6e-45
0000d0 04 00 00 00 e6 a4 5a bc 04 00 00 00 00 00 00 00
       6e-45 -0.013344979 6e-45 0.0
0000e0 00 00 00 00 49 57 1c 3d 46 8f 29 3d 04 00 00 00
       0.0 0.03816918 0.0413964 6e-45
0000f0 00 00 00 00 04 00 00 00 00 00 00 00 00 00 00 00
       0.0 6e-45 0.0 0.0

exp_avg_sq f4 [64]
000000 6b 48 93 27 9e 3d 2e 27 9f 79 85 24 fb 75 bc 26
       4.087921e-15 2.4180754e-15 5.788559e-17 1.3077099e-15
000010 13 4e 0c 3c 00 00 00 00 d1 10 ad 26 00 00 00 00
       0.008563536 0.0 1.2008845e-15 0.0
000020 a8 04 87 24 00 00 00 00 00 00 00 00 9e 2b 96 20
       5.8554805e-17 0.0 0.0 2.5439852e-19
000030 00 00 00 00 08 02 ba 25 00 00 00 00 00 00 00 00
       0.0 3.2267233e-16 0.0 0.0
000040 00 00 00 00 00 00 00 00 00 00 00 00 f0 44 0e 2a
       0.0 0.0 0.0 1.2636051e-13
000050 16 39 02 3c 15 f0 1e 3c d1 cc 7c 26 df 66 92 2a
       0.007948181 0.009700795 8.770764e-16 2.600619e-13
000060 c0 e3 07 3c d6 fa d2 26 51 59 2a 29 86 7c 58 28
       0.008294046 1.4639666e-15 3.7825052e-14 1.201741e-14
000070 00 00 00 00 00 00 00 00 00 00 00 00 00 00 00 00
       0.0 0.0 0.0 0.0
000080 ce bf 8c 2a 00 00 00 00 12 40 f7 3b b5 6d f7 3b
       2.5002087e-13 0.0 0.0075454796 0.00755092
000090 00 00 00 00 8a ca 1c 21 00 00 00 00 d1 73 70 3a
       0.0 5.3122914e-19 0.0 0.00091725314
0000a0 da d2 2c 26 00 00 00 00 53 f9 77 3a 53 b0 f2 25
       5.9960245e-16 0.0 0.00094594544 4.209979e-16
0000b0 00 00 00 00 28 f9 01 27 00 00 00 00 6c 8c 01 1e
       0.0 1.8037414e-15 0.0 6.858242e-21
0000c0 00 00 00 00 00 00 00 00 6d a9 6c 25 91 7a 23 27
       0.0 0.0 2.0527141e-16 2.2687238e-15
0000d0 0b f2 17 25 d3 ba 8d 3a 95 16 88 27 00 00 00 00
       1.317917e-16 0.0010813124 3.7772066e-15 0.0
0000e0 00 00 00 00 cc 18 0e 3c 81 f0 24 3c 38 3e ca 25
       0.0 0.008672904 0.010067106 3.5083575e-16
0000f0 00 00 00 00 ee af 04 27 00 00 00 00 00 00 00 00
       0.0 1.8414052e-15 0.0 0.0

exp_avg f4 [1, 64]
000000 04 00 00 00 04 00 00 80 04 00 00 80 04 00 00 80
       6e-45 -6e-45 -6e-45 -6e-45
000010 fb c1 a2 3b 00 00 00 00 04 00 00 80 00 00 00 00
       0.004966972 0.0 -6e-45 0.0
000020 04 00 00 80 00 00 00 00 00 00 00 00 04 00 00 80
       -6e-45 0.0 0.0 -6e-45
000030 00 00 00 00 04 00 00 80 00 00 00 00 00 00 00 00
       0.0 -6e-45 0.0 0.0
000040 00 00 00 00 00 00 00 00 00 00 00 00 04 00 00 00
       0.0 0.0 0.0 6e-45
000050 92 c4 f4 3b f2 27 c1 3b 04 00 00 80 04 00 00 00
       0.007469722 0.0058946544 -6e-45 6e-45
000060 48 b3 f1 3b 04 00 00 00 04 00 00 00 04 00 00 00
       0.0073761083 6e-45 6e-45 6e-45
000070 00 00 00 00 00 00 00 00 00 00 00 00 00 00 00 00
       0.0 0.0 0.0 0.0
000080 04 00 00 00 00 00 00 00 89 fb c3 3b b4 b4 a7 3b
       6e-45 0.0 0.005980913 0.005117977
000090 00 00 00 00 04 00 00 00 00 00 00 00 99 18 a8 3d
       0.0 6e-45 0.0 0.08207817
0000a0 04 00 00 00 00 00 00 00 8a 1c a4 3d 04 00 00 80
       6e-45 0.0 0.08013256 -6e-45
0000b0 00 00 00 00 04 00 00 80 00 00 00 00 04 00 00 00
       0.0 -6e-45 0.0 6e-45
0000c0 00 00 00 00 00 00 00 00 04 00 00 80 04 00 00 80
       0.0 0.0 -6e-45 -6e-45
0000d0 04 00 00 80 26 f7 9e 3d 04 00 00 00 00 00 00 00
       -6e-45 0.077619836 6e-45 0.0
0000e0 00 00 00 00 fe 98 93 3b 5b 42 df 3b 04 00 00 80
       0.0 0.004504322 0.00681333 -6e-45
0000f0 00 00 00 00 04 00 00 80 00 00 00 00 00 00 00 00
       0.0 -6e-45 0.0 0.0

exp_avg_sq f4 [1, 64]
000000 49 30 3c 2a 84 51 29 26 d0 c4 8b 25 10 8f b1 25
       1.6714507e-13 5.874413e-16 2.4246022e-16 3.0801548e-16
000010 de d8 20 3a 00 00 00 00 fb 68 96 25 00 00 00 00
       0.00061358314 0.0 2.609199e-16 0.0
000020 a4 7b a7 26 00 00 00 00 00 00 00 00 08 2d c5 27
       1.1621466e-15 0.0 0.0 5.4727307e-15
000030 00 00 00 00 2b 86 c6 26 00 00 00 00 00 00 00 00
       0.0 1.3775376e-15 0.0 0.0
000040 00 00 00 00 00 00 00 00 00 00 00 00 22 5c 32 2b
       0.0 0.0 0.0 6.3366163e-13
000050 03 26 44 3a cb 43 16 3a 9f 09 72 24 4a b2 4a 2b
       0.0007482471 0.0005732148 5.2483535e-17 7.201224e-13
000060 81 e0 36 3a a3 72 83 2b 53 0c bd 2a 16 47 e2 2a
       0.0006976203 9.339928e-13 3.3581696e-13 4.019499e-13
000070 00 00 00 00 00 00 00 00 00 00 00 00 00 00 00 00
       0.0 0.0 0.0 0.0
000080 3f 41 cd 2a 00 00 00 00 c2 34 52 3a 9e 3b 30 3a
       3.646059e-13 0.0 0.0008018726 0.0006722751
000090 00 00 00 00 ed 3d 16 22 00 00 00 00 de 02 26 3d
       0.0 2.0361574e-18 0.0 0.040530078
0000a0 62 bb 07 1f 00 00 00 00 89 38 1f 3d 04 8d 5f 28
       2.874236e-20 0.0 0.038872276 1.2409565e-14
0000b0 00 00 00 00 e1 fc 4c 27 00 00 00 00 12 58 2f 21
       0.0 2.8447773e-15 0.0 5.9408866e-19
0000c0 00 00 00 00 00 00 00 00 f0 bf 5a 26 f7 b1 e5 26
       0.0 0.0 7.589407e-16 1.5938305e-15
0000d0 b5 4d a6 21 af dc 15 3d c3 5f c3 2b 00 00 00 00
       1.1269166e-18 0.036587413 1.3882163e-12 0.0
0000e0 00 00 00 00 ae 8c 0c 3a a8 18 19 3a af 15 1a 26
       0.0 0.0005361539 0.0005840161 5.345887e-16
0000f0 00 00 00 00 35 86 08 28 00 00 00 00 00 00 00 00
       0.0 7.578618e-15 0.0 0.0
